…
results_dir:  /home/graduate2024/code/baseline/CLAM-master/results/EGFR_only_Res2x2_UNI_d1024_old2
lr:  0.0002
experiment:  EGFR_only_Res2x2_fengru
reg:  1e-05
label_frac:  1.0
bag_loss:  ce
seed:  1
model_type:  clam_mb
model_size:  small
use_drop_out:  0.25
weighted_sample:  True
opt:  adam
bag_weight:  0.7
inst_loss:  svm
B:  8
split_dir:  /home/graduate2024/code/baseline/CLAM-master/splits/EGFR_Five_subtyping_fengru_100

Training Fold 0!

Init train/val/test splits... 
Done!
Training on 594 samples
Validating on 74 samples
Testing on 74 samples

Init loss function... Done!

Init Model... Setting tau to 1.0
Done!
Model__:
CLAM_MB(
  (attention_net): Sequential(
    (0): Linear(in_features=1024, out_features=512, bias=True)
    (1): ReLU()
    (2): Dropout(p=0.25, inplace=False)
    (3): Attn_Net_Res2x2(
      (Attn_Net): Attn_Net_Gated_Without_Fc(
        (attention_a): Sequential(
          (0): Linear(in_features=512, out_features=256, bias=True)
          (1): Tanh()
          (2): Dropout(p=0.25, inplace=False)
        )
        (attention_b): Sequential(
          (0): Linear(in_features=512, out_features=256, bias=True)
          (1): Sigmoid()
          (2): Dropout(p=0.25, inplace=False)
        )
      )
      (Attn_Net_Double): Attn_Net_Double_Without_Fc(
        (attention_a): Sequential(
          (0): Linear(in_features=512, out_features=512, bias=True)
          (1): Tanh()
          (2): Dropout(p=0.25, inplace=False)
        )
        (attention_b): Sequential(
          (0): Linear(in_features=512, out_features=512, bias=True)
          (1): Sigmoid()
          (2): Dropout(p=0.25, inplace=False)
        )
        (attention_c): Sequential(
          (0): Linear(in_features=512, out_features=256, bias=True)
          (1): Tanh()
          (2): Dropout(p=0.25, inplace=False)
        )
        (attention_d): Sequential(
          (0): Linear(in_features=512, out_features=256, bias=True)
          (1): Sigmoid()
          (2): Dropout(p=0.25, inplace=False)
        )
      )
      (Attn_Net_1): Attn_Net_Gated_Without_Fc(
        (attention_a): Sequential(
          (0): Linear(in_features=512, out_features=256, bias=True)
          (1): Tanh()
          (2): Dropout(p=0.25, inplace=False)
        )
        (attention_b): Sequential(
          (0): Linear(in_features=512, out_features=256, bias=True)
          (1): Sigmoid()
          (2): Dropout(p=0.25, inplace=False)
        )
      )
      (Attn_Net_Double_1): Attn_Net_Double_Without_Fc(
        (attention_a): Sequential(
          (0): Linear(in_features=512, out_features=512, bias=True)
          (1): Tanh()
          (2): Dropout(p=0.25, inplace=False)
        )
        (attention_b): Sequential(
          (0): Linear(in_features=512, out_features=512, bias=True)
          (1): Sigmoid()
          (2): Dropout(p=0.25, inplace=False)
        )
        (attention_c): Sequential(
          (0): Linear(in_features=512, out_features=256, bias=True)
          (1): Tanh()
          (2): Dropout(p=0.25, inplace=False)
        )
        (attention_d): Sequential(
          (0): Linear(in_features=512, out_features=256, bias=True)
          (1): Sigmoid()
          (2): Dropout(p=0.25, inplace=False)
        )
      )
      (parallel_linear): Parallel_Linear()
    )
  )
  (classifiers): ModuleList(
    (0-4): 5 x Linear(in_features=512, out_features=1, bias=True)
  )
  (instance_classifiers): ModuleList(
    (0-4): 5 x Linear(in_features=512, out_features=2, bias=True)
  )
  (instance_loss_fn): SmoothTop1SVM()
…
