…
Patient-LVL; Number of samples registered in class 0: 163
Slide-LVL; Number of samples registered in class 0: 163
Patient-LVL; Number of samples registered in class 1: 182
Slide-LVL; Number of samples registered in class 1: 182
Patient-LVL; Number of samples registered in class 2: 138
Slide-LVL; Number of samples registered in class 2: 138
Patient-LVL; Number of samples registered in class 3: 116
Slide-LVL; Number of samples registered in class 3: 116
Patient-LVL; Number of samples registered in class 4: 142
Slide-LVL; Number of samples registered in class 4: 142
Init Model
CLAM_MB(
  (attention_net): Sequential(
    (0): Linear(in_features=512, out_features=512, bias=True)
    (1): ReLU()
    (2): Dropout(p=0.25, inplace=False)
    (3): Attn_Net_Gated(
      (attention_a): Sequential(
        (0): Linear(in_features=512, out_features=256, bias=True)
        (1): Tanh()
        (2): Dropout(p=0.25, inplace=False)
      )
      (attention_b): Sequential(
        (0): Linear(in_features=512, out_features=256, bias=True)
        (1): Sigmoid()
        (2): Dropout(p=0.25, inplace=False)
      )
      (attention_c): Linear(in_features=256, out_features=5, bias=True)
    )
  )
  (classifiers): ModuleList(
    (0-4): 5 x Linear(in_features=512, out_features=1, bias=True)
  )
  (instance_classifiers): ModuleList(
    (0-4): 5 x Linear(in_features=512, out_features=2, bias=True)
  )
  (instance_loss_fn): CrossEntropyLoss()
)
Total number of parameters: 534292
Total number of trainable parameters: 534292
Init Loaders
test_error:  0.4189189189189189
auc:  0.8438981363772798
Init Model
CLAM_MB(
  (attention_net): Sequential(
    (0): Linear(in_features=512, out_features=512, bias=True)
    (1): ReLU()
    (2): Dropout(p=0.25, inplace=False)
    (3): Attn_Net_Gated(
      (attention_a): Sequential(
        (0): Linear(in_features=512, out_features=256, bias=True)
        (1): Tanh()
        (2): Dropout(p=0.25, inplace=False)
      )
      (attention_b): Sequential(
        (0): Linear(in_features=512, out_features=256, bias=True)
        (1): Sigmoid()
        (2): Dropout(p=0.25, inplace=False)
      )
      (attention_c): Linear(in_features=256, out_features=5, bias=True)
    )
  )
  (classifiers): ModuleList(
    (0-4): 5 x Linear(in_features=512, out_features=1, bias=True)
  )
  (instance_classifiers): ModuleList(
    (0-4): 5 x Linear(in_features=512, out_features=2, bias=True)
  )
  (instance_loss_fn): CrossEntropyLoss()
)
Total number of parameters: 534292
Total number of trainable parameters: 534292
Init Loaders
test_error:  0.43243243243243246
auc:  0.8403883503716651
Init Model
CLAM_MB(
  (attention_net): Sequential(
    (0): Linear(in_features=512, out_features=512, bias=True)
    (1): ReLU()
    (2): Dropout(p=0.25, inplace=False)
    (3): Attn_Net_Gated(
      (attention_a): Sequential(
        (0): Linear(in_features=512, out_features=256, bias=True)
        (1): Tanh()
        (2): Dropout(p=0.25, inplace=False)
      )
      (attention_b): Sequential(
        (0): Linear(in_features=512, out_features=256, bias=True)
        (1): Sigmoid()
        (2): Dropout(p=0.25, inplace=False)
      )
      (attention_c): Linear(in_features=256, out_features=5, bias=True)
    )
  )
  (classifiers): ModuleList(
    (0-4): 5 x Linear(in_features=512, out_features=1, bias=True)
  )
  (instance_classifiers): ModuleList(
    (0-4): 5 x Linear(in_features=512, out_features=2, bias=True)
  )
  (instance_loss_fn): CrossEntropyLoss()
)
Total number of parameters: 534292
Total number of trainable parameters: 534292
Init Loaders
test_error:  0.3918918918918919
auc:  0.8858706984833237
Init Model
CLAM_MB(
  (attention_net): Sequential(
    (0): Linear(in_features=512, out_features=512, bias=True)
    (1): ReLU()
    (2): Dropout(p=0.25, inplace=False)
    (3): Attn_Net_Gated(
      (attention_a): Sequential(
        (0): Linear(in_features=512, out_features=256, bias=True)
        (1): Tanh()
        (2): Dropout(p=0.25, inplace=False)
      )
      (attention_b): Sequential(
        (0): Linear(in_features=512, out_features=256, bias=True)
        (1): Sigmoid()
        (2): Dropout(p=0.25, inplace=False)
      )
      (attention_c): Linear(in_features=256, out_features=5, bias=True)
    )
  )
  (classifiers): ModuleList(
    (0-4): 5 x Linear(in_features=512, out_features=1, bias=True)
  )
  (instance_classifiers): ModuleList(
    (0-4): 5 x Linear(in_features=512, out_features=2, bias=True)
  )
  (instance_loss_fn): CrossEntropyLoss()
)
Total number of parameters: 534292
Total number of trainable parameters: 534292
Init Loaders
test_error:  0.40540540540540543
auc:  0.8697583072902872
Init Model
CLAM_MB(
  (attention_net): Sequential(
    (0): Linear(in_features=512, out_features=512, bias=True)
    (1): ReLU()
    (2): Dropout(p=0.25, inplace=False)
    (3): Attn_Net_Gated(
      (attention_a): Sequential(
        (0): Linear(in_features=512, out_features=256, bias=True)
        (1): Tanh()
        (2): Dropout(p=0.25, inplace=False)
      )
      (attention_b): Sequential(
        (0): Linear(in_features=512, out_features=256, bias=True)
        (1): Sigmoid()
        (2): Dropout(p=0.25, inplace=False)
      )
      (attention_c): Linear(in_features=256, out_features=5, bias=True)
    )
  )
  (classifiers): ModuleList(
    (0-4): 5 x Linear(in_features=512, out_features=1, bias=True)
  )
  (instance_classifiers): ModuleList(
    (0-4): 5 x Linear(in_features=512, out_features=2, bias=True)
  )
  (instance_loss_fn): CrossEntropyLoss()
)
Total number of parameters: 534292
Total number of trainable parameters: 534292
Init Loaders
test_error:  0.4594594594594595
auc:  0.8722670913007399
Init Model
CLAM_MB(
  (attention_net): Sequential(
    (0): Linear(in_features=512, out_features=512, bias=True)
    (1): ReLU()
    (2): Dropout(p=0.25, inplace=False)
    (3): Attn_Net_Gated(
      (attention_a): Sequential(
        (0): Linear(in_features=512, out_features=256, bias=True)
        (1): Tanh()
        (2): Dropout(p=0.25, inplace=False)
      )
      (attention_b): Sequential(
        (0): Linear(in_features=512, out_features=256, bias=True)
        (1): Sigmoid()
        (2): Dropout(p=0.25, inplace=False)
      )
      (attention_c): Linear(in_features=256, out_features=5, bias=True)
    )
  )
  (classifiers): ModuleList(
    (0-4): 5 x Linear(in_features=512, out_features=1, bias=True)
  )
  (instance_classifiers): ModuleList(
    (0-4): 5 x Linear(in_features=512, out_features=2, bias=True)
  )
  (instance_loss_fn): CrossEntropyLoss()
)
Total number of parameters: 534292
Total number of trainable parameters: 534292
Init Loaders
test_error:  0.43243243243243246
auc:  0.8727041509966984
Init Model
CLAM_MB(
  (attention_net): Sequential(
    (0): Linear(in_features=512, out_features=512, bias=True)
    (1): ReLU()
    (2): Dropout(p=0.25, inplace=False)
    (3): Attn_Net_Gated(
      (attention_a): Sequential(
        (0): Linear(in_features=512, out_features=256, bias=True)
        (1): Tanh()
        (2): Dropout(p=0.25, inplace=False)
      )
      (attention_b): Sequential(
        (0): Linear(in_features=512, out_features=256, bias=True)
        (1): Sigmoid()
        (2): Dropout(p=0.25, inplace=False)
      )
      (attention_c): Linear(in_features=256, out_features=5, bias=True)
    )
  )
  (classifiers): ModuleList(
    (0-4): 5 x Linear(in_features=512, out_features=1, bias=True)
  )
  (instance_classifiers): ModuleList(
    (0-4): 5 x Linear(in_features=512, out_features=2, bias=True)
  )
  (instance_loss_fn): CrossEntropyLoss()
)
Total number of parameters: 534292
Total number of trainable parameters: 534292
Init Loaders
test_error:  0.3783783783783784
auc:  0.8671463442625844
Init Model
CLAM_MB(
  (attention_net): Sequential(
    (0): Linear(in_features=512, out_features=512, bias=True)
    (1): ReLU()
    (2): Dropout(p=0.25, inplace=False)
    (3): Attn_Net_Gated(
      (attention_a): Sequential(
        (0): Linear(in_features=512, out_features=256, bias=True)
        (1): Tanh()
        (2): Dropout(p=0.25, inplace=False)
      )
      (attention_b): Sequential(
        (0): Linear(in_features=512, out_features=256, bias=True)
        (1): Sigmoid()
        (2): Dropout(p=0.25, inplace=False)
      )
      (attention_c): Linear(in_features=256, out_features=5, bias=True)
    )
  )
  (classifiers): ModuleList(
    (0-4): 5 x Linear(in_features=512, out_features=1, bias=True)
  )
  (instance_classifiers): ModuleList(
    (0-4): 5 x Linear(in_features=512, out_features=2, bias=True)
  )
  (instance_loss_fn): CrossEntropyLoss()
)
Total number of parameters: 534292
Total number of trainable parameters: 534292
Init Loaders
test_error:  0.36486486486486486
auc:  0.8871987834807633
Init Model
CLAM_MB(
  (attention_net): Sequential(
    (0): Linear(in_features=512, out_features=512, bias=True)
    (1): ReLU()
    (2): Dropout(p=0.25, inplace=False)
    (3): Attn_Net_Gated(
      (attention_a): Sequential(
        (0): Linear(in_features=512, out_features=256, bias=True)
        (1): Tanh()
        (2): Dropout(p=0.25, inplace=False)
      )
      (attention_b): Sequential(
        (0): Linear(in_features=512, out_features=256, bias=True)
        (1): Sigmoid()
        (2): Dropout(p=0.25, inplace=False)
      )
      (attention_c): Linear(in_features=256, out_features=5, bias=True)
    )
  )
  (classifiers): ModuleList(
    (0-4): 5 x Linear(in_features=512, out_features=1, bias=True)
  )
  (instance_classifiers): ModuleList(
    (0-4): 5 x Linear(in_features=512, out_features=2, bias=True)
  )
  (instance_loss_fn): CrossEntropyLoss()
)
Total number of parameters: 534292
Total number of trainable parameters: 534292
Init Loaders
test_error:  0.3918918918918919
auc:  0.9048140349947914
Init Model
CLAM_MB(
  (attention_net): Sequential(
    (0): Linear(in_features=512, out_features=512, bias=True)
    (1): ReLU()
    (2): Dropout(p=0.25, inplace=False)
    (3): Attn_Net_Gated(
      (attention_a): Sequential(
        (0): Linear(in_features=512, out_features=256, bias=True)
        (1): Tanh()
        (2): Dropout(p=0.25, inplace=False)
      )
      (attention_b): Sequential(
        (0): Linear(in_features=512, out_features=256, bias=True)
        (1): Sigmoid()
        (2): Dropout(p=0.25, inplace=False)
      )
      (attention_c): Linear(in_features=256, out_features=5, bias=True)
    )
  )
  (classifiers): ModuleList(
    (0-4): 5 x Linear(in_features=512, out_features=1, bias=True)
  )
  (instance_classifiers): ModuleList(
    (0-4): 5 x Linear(in_features=512, out_features=2, bias=True)
  )
  (instance_loss_fn): CrossEntropyLoss()
)
Total number of parameters: 534292
Total number of trainable parameters: 534292
Init Loaders
test_error:  0.4864864864864865
…
